data.pth (torch, 71895 bytes, 6 tensors)

l1.weight f4 [8, 600]
1.113397 1.9417956 0.93817294 -0.27180153 2.4585123 0.69670945 0.68115526 1.838497
1.99882 1.7737666 -0.067731805 -2.0900745 2.4099483 -1.1806538 -0.2554846 0.56724906
-0.2572017 0.6066997 0.5404873 1.4045537 1.3983041 -0.68596363 -2.0504148 0.7692434
-1.0471714 1.0410776 0.64229846 -2.1807303 -0.605597 3.8257096 -0.80196875 0.6609284
0.831414 0.96625596 -4.3634844 0.9484721 -5.0524406 2.4380832 -1.4436598 0.24189006
1.793413 3.7068841 -0.04977111 -0.09231828 0.8079069 0.038690858 0.40683192 -0.2442307
1.4432478 1.0444248 3.5047116 -0.29439172 0.22186188 -0.027801655 0.0641749 -0.11576083
2.096859 1.3259869 0.51055217 3.266232 2.2512283 0.048870735 0.09038171 0.09169988
-0.4765685 1.7007822 1.4725741 0.10640525 4.734704 -0.29168478 -0.7595659 -0.93029726
1.1714882 -0.777281 -0.23720957 -0.4395802 0.8642578 2.862219 2.9334588 -2.4623373
4.1107755 -0.4521107 0.41111445 -0.06907533 -0.9503803 -0.8225952 4.631146 -0.24441871
0.5429346 -0.56663746 -0.16726585 3.7975943 -1.8651328 0.41820836 -2.6484199 -0.78893197
-2.475564 -1.5398041 0.07052319 2.7382228 1.4409744 -1.1062145 -0.5860071 2.2867815
3.4867594 -1.6739993 0.14771709 0.44316453 -0.9314071 4.60391 3.6822932 0.4794981
-1.33846 -2.5995264 1.8681316 3.4468858 0.17851485 -0.17905936 -0.6370473 3.8684049
0.4727707 0.19828792 1.2449747 2.0495107 0.73604006 -4.286087 -0.037932143 -0.9347046
0.9413376 1.3090093 0.17331652 -1.5483992 -0.8571787 -1.6529615 1.0750828 -1.5547419
0.0039926143 -1.7113203 -0.6546908 -0.11751864 -1.8765591 -0.097309984 0.71834964 -0.18544666
-0.07226177 1.040859 1.1258925 -2.1332235 -0.10554574 -2.7050788 1.4109696 -0.017048225
-0.6151259 3.1197493 2.6236327 1.6479567 -0.113183625 1.0786303 -2.8465402 1.5709132
-0.0057289824 -0.8240124 1.377914 0.5207401 1.8109261 -2.7514367 -0.69098413 -0.82260877
-3.9630678 -0.68941396 -0.8945142 0.5222663 -0.7437611 3.9876661 0.23943156 0.45549068
-0.08129013 -0.94236004 3.9109752 1.0966158 0.123966046 -0.8204358 2.283815 0.6312406
-0.8779163 -1.9657279 -0.9164107 -0.43961635 1.9290328 -0.8929937 0.25452673 -1.4738958
1.4507405 -0.5569527 -0.2515536 1.0108184 1.0744196 1.0513299 2.1011393 -3.1818879
-0.5354906 1.793131 3.3212228 -0.030335404 -0.8588047 -0.09771767 0.5130946 1.5052085
1.4168597 1.0483552 -0.18966253 1.7049451 0.7490132 1.0330803 -0.2693797 -0.86237967
2.030263 3.06397 3.6272619 2.7004092 -1.8520799 1.4430935 -0.1528103 -0.31350297
2.9031887 0.6525242 0.72688675 0.20110525 3.7458425 -2.8477783 -0.071121365 0.86704457
0.89697146 1.4129618 3.7360094 -2.5561097 -1.3368323 -0.13393356 0.38561758 -0.93649167
-2.4110208 2.103811 -0.40280107 1.6922115 0.8184579 0.14215423 0.53690517 2.0332692
0.7148058 1.1405321 2.2801502 1.7233744 0.48140964 0.055450298 -0.16233255 -0.38616338
00000000: cb83 8e3f c28c f83f 1a2c 703f 9229 8bbe
00000010: 4458 1d40 8d5b 323f 3160 2e3f df53 eb3f
00000020: 55d9 ff3f c90a e33f f9b6 8abd c8c3 05c0
00000030: 983c 1a40 aa1f 97bf e1ce 82be 3c37 113f
00000040: f1af 83be ac50 1b3f 605d 0a3f 6ac8 b33f
00000050: a1fb b23f 509b 2fbf ff39 03c0 23ed 443f
00000060: b609 86bf 0842 853f ac6d 243f 1691 0bc0
00000070: 6808 1bbf 6dd8 7440 d34d 4dbf 9b32 293f
00000080: 8cd7 543f 8d5c 773f aaa1 8bc0 11cf 723f
00000090: 98ad a1c0 8e09 1c40 d8c9 b8bf 07b2 773e
000000a0: 8f8e e53f 973d 6d40 cbdc 4bbd 5e11 bdbd
000000b0: fdd2 4e3f 4e7a 1e3d 464c d03e 9d17 7abe
000000c0: 58bc b83f b6af 853f 324d 6040 83ba 96be
000000d0: c32f 633e 4cc0 e3bc 216e 833d 0414 edbd
000000e0: f032 0640 f0b9 a93f 8cb3 023f f209 5140
000000f0: 2014 1040 ae2c 483d 0c1a b93d 26cd bb3d
00000100: c900 f4be 3bb3 d93f 4f7d bc3f ffea d93d
00000110: b282 9740 b557 95be e972 42bf f627 6ebf
00000120: 53f3 953f e3fb 46bf 11e7 72be a810 e1be
00000130: 0040 5d3f 992e 3740 cabd 3b40 ef96 1dc0
00000140: 798b 8340 0e7b e7be 987d d23e 5e77 8dbd
00000150: 204c 73bf 9995 52bf 5932 9440 e648 7abe
00000160: c3fd 0a3f 270f 11bf bd47 2bbe c90b 7340
00000170: acbc eebf 681f d63e b67f 29c0 72f7 49bf
00000180: a46f 1ec0 4d18 c5bf 766e 903d 0b3f 2f40
00000190: d971 b83f 7098 8dbf 9004 16bf a15a 1240
000001a0: 1127 5f40 9c45 d6bf 2643 173e 76e6 e23e
000001b0: b270 6ebf 3b53 9340 b1aa 6b40 c680 f53e
000001c0: a852 abbf a45e 26c0 f01e ef3f c799 5c40
000001d0: 99cc 363e 565b 37be 8815 23bf f293 7740
000001e0: 000f f23e fd0b 4b3e 555b 9f3f 2f2b 0340
000001f0: 1f6d 3c3f a027 89c0 bc5e 1bbd cd48 6fbf
00000200: 80fb 703f 9e8d a73f e379 313e f231 c6bf
00000210: 1070 5bbf 3e94 d3bf 509c 893f c801 c7bf
00000220: 7ad4 823b 8b0c dbbf d199 27bf 9dad f0bd
00000230: 1733 f0bf 754a c7bd c3e5 373f bbe5 3dbe
00000240: fbfd 93bd de3a 853f 3f1d 903f bc86 08c0
00000250: 5d28 d8bd 0320 2dc0 a79a b43f b8a8 8bbc
00000260: e478 1dbf f9a9 4740 99e9 2740 3ff0 d23f
00000270: d1cc e7bd 8f10 8a3f b72d 36c0 af13 c93f
00000280: 30ba bbbb 7af2 52bf 7c5f b03f 394f 053f
00000290: 6dcc e73f 8a17 30c0 56e4 30bf 7d96 52bf
000002a0: e7a2 7dc0 6f7d 30bf e2fe 64bf 3fb3 053f
000002b0: 2167 3ebf ec35 7f40 8c2d 753e 1336 e93e
000002c0: 717b a6bd 823e 71bf 6b4d 7a40 e85d 8c3f
000002d0: e9e1 fd3d 1508 52bf 062a 1240 fc98 213f
000002e0: 1fbf 60bf f99c fbbf e499 6abf 6515 e1be
000002f0: 8cea f63f 3c9b 64bf 5451 823e 9ea8 bcbf
00000300: ddb1 b93f 7494 0ebf a2cb 80be 7f62 813f
00000310: 9586 893f fa91 863f 1179 0640 0da4 4bc0
00000320: e915 09bf 5185 e53f ea8e 5440 f481 f8bc
00000330: a0da 5bbf 3420 c8bd 2b5a 033f acaa c03f
00000340: a95b b53f 8130 863f e536 42be a43b da3f
00000350: 54bf 3f3f fa3b 843f 23ec 89be eac4 5cbf
00000360: d4ef 0140 1618 4440 0f25 6840 81d3 2c40
00000370: f410 edbf 4ab7 b83f 4e7a 1cbe 7683 a0be
00000380: d8cd 3940 d30b 273f 4015 3a3f 89ee 4d3e
00000390: e2bb 6f40 0042 36c0 14a8 91bd a2f6 5d3f
000003a0: ec9f 653f efdb b43f c71a 6f40 4d97 23c0
000003b0: 521d abbf e125 09be ab6f c53e ebbd 6fbf
000003c0: 2a4e 1ac0 d7a4 0640 f13b cebe 639a d83f
000003d0: 7586 513f e190 113e 9e72 093f 1521 0240
000003e0: 83fd 363f f5fc 913f fbed 1140 8897 dc3f
000003f0: 537b f63e da1f 633d 813a 26be 35b7 c5be

l1.bias f4 [8]
1.1620156 0.8956744 1.9236724 1.2859144 1.7709489 1.5789307 1.7845767 0.81125355
00000000: edbc 943f eb4a 653f e63a f63f d898 a43f
00000010: 74ae e23f 671a ca3f 026d e43f 50ae 4f3f

l2.weight f4 [8, 8]
0.29034552 -1.1495515 3.3408456 -0.645328 0.1478775 5.469567 0.35886186 -2.6336102
-0.92900413 -0.71196467 -0.36403412 -0.022886362 -0.49122033 0.3082054 4.816918 6.737624
-2.4856637 1.8770698 -0.07513292 -0.040112875 6.2877307 -0.6341405 0.76911056 0.5897979
-3.9159794 -0.25515783 3.5242116 3.7712681 -1.0120234 -0.9161276 0.9571515 0.33141372
3.563541 -2.2797961 1.3313493 2.0341997 -0.08160425 -1.9508376 0.24849047 -0.61137235
-0.22574656 0.17047551 -0.13486049 -0.33804566 -0.13354735 0.040408716 -0.15056841 0.054660056
-0.04485646 -0.24853009 -0.09932393 -0.29756197 -0.33662593 -0.22423905 -0.08540338 -0.08104774
1.3086662 5.2501874 -0.48523757 2.1269693 -2.380575 -0.6401169 0.2259032 -0.07778988
00000000: 2ba8 943e 8124 93bf 6ad0 5540 3734 25bf
00000010: 336d 173e b106 af40 bebc b73e 128d 28c0
00000020: 37d3 6dbf 5143 36bf ae62 babe 2e7c bbbc
00000030: 3b81 fbbe 19cd 9d3e 3124 9a40 9e9a d740
00000040: 1d15 1fc0 d343 f03f 4adf 99bd 664d 24bd
00000050: 1735 c940 0857 22bf 6ee4 443f fffc 163f
00000060: 689f 7ac0 0ca4 82be af8c 6140 755c 7140
00000070: fc89 81bf 5787 6abf e107 753f 0faf a93e
00000080: 0e11 6440 2ee8 11c0 a769 aa3f 5430 0240
00000090: 2120 a7bd 0cb5 f9bf 4974 7e3e e682 1cbf
000000a0: 1b2a 67be 2291 2e3e de18 0abe 5214 adbe
000000b0: a3c0 08be 9c83 253d 9b2e 1abe 39e3 5f3d
000000c0: 68bb 37bd ac7e 7ebe 586a cbbd 0b5a 98be
000000d0: 3c5a acbe ec9e 65be f8e7 aebd 5cfc a5bd
000000e0: 6082 a73f 8901 a840 0f71 f8be 4420 0840
000000f0: 575b 18c0 b3de 23bf 2b53 673e 4d50 9fbd

l2.bias f4 [8]
1.5307571 1.0648614 1.1788061 0.95305276 0.6126757 -0.41414848 -0.16235948 -0.8484349
00000000: d9ef c33f 614d 883f 1ee3 963f 44fb 733f
00000010: 51d8 1c3f 450b d4be 9041 26be 0833 59bf

l3.weight f4 [580, 8]
-0.91296417 -1.1609398 -2.2619355 0.28093487 -7.2064376 -0.028008418 -0.18440063 -0.29277492
-1.2945131 -0.15779994 -0.8124521 -3.14602 -11.521402 0.2733501 -0.0035385787 -0.33328363
-0.9813977 1.0685678 -2.7086349 -1.9527478 -3.203565 0.23545758 0.34416422 -6.910537
-0.89188087 -10.198607 -1.7693502 -0.18491283 -1.215611 -0.39435354 -0.015941828 -0.66654146
0.15493654 -8.846192 -7.862057 -1.2500204 -1.3143364 0.09735401 0.025213897 -0.47062322
-2.6160638 -2.6830757 -2.66158 0.83417815 -0.050570685 -0.20566243 0.12614238 -1.1694177
-4.766404 0.2484227 -0.40113366 -12.003874 -4.409027 -0.37546295 0.09447381 0.23681095
-2.1403682 1.119029 -0.7820133 -7.0960116 -12.489351 0.05582222 0.2588208 -2.4164596
-0.19532919 -4.285801 -2.005826 0.65466785 -3.28944 -0.38695335 0.3424795 -13.365753
-0.60211927 -7.162835 -3.663372 1.9526517 -2.256961 -0.25902733 -0.31545785 -12.24142
-0.78111076 -1.7250589 -0.7085386 -3.6548443 -17.278639 0.22961217 -0.22627509 0.2006634
-0.9090731 -0.19070208 -0.6975798 -1.4285452 -14.762362 -0.051606283 0.07396349 -3.5763886
-0.54871106 -0.22359347 -1.0954075 -0.7388513 -14.887637 0.2336341 -0.21609999 -10.839857
-0.12726101 -1.3924844 -1.536444 -1.7715261 -4.799205 -0.20428747 0.18724051 -1.2660254
-0.15750393 -0.48475927 -2.6496732 -0.1883891 -17.971357 0.027524602 -0.34087464 -1.9754761
-0.696923 -0.9018498 -1.346482 -0.4893019 -3.609066 -0.36352497 -0.21785562 -1.6620613
-0.7572025 1.4145982 -2.854775 -4.5985665 -8.747915 -0.063028485 0.22748014 -9.934458
0.16962059 0.043326672 -10.894998 -1.1754689 -10.396899 0.25192955 0.24218765 -8.560357
-1.1173006 -0.3811785 -3.45355 0.9853028 -14.688619 -0.052297633 0.21731356 -0.60066766
-2.2816546 0.6719421 -1.4423615 -3.0117292 -13.699321 0.07204522 -0.22957346 -0.029505387
-0.33789852 1.0654361 -7.462186 -9.188162 -7.490695 -0.3720064 -0.30763975 -3.3085282
-0.47043195 -15.803205 -1.9325216 0.923105 -1.9023837 -0.013324285 0.28576395 -4.891187
-0.4688022 -12.213619 -6.9065413 1.2802318 -1.1813163 -0.39904782 -0.16854048 -1.808335
-1.0972607 -0.7652116 -3.1316848 1.5015727 -2.6088877 -0.24695106 0.18434837 -3.260754
-1.2078313 -1.3197991 -1.3196752 0.9808983 -6.4572268 0.021062873 -0.046479076 -2.3737025
-1.505094 0.73625666 -0.7365286 -2.2473118 -11.323011 -0.38260016 -0.22681685 -7.274643
-0.021359233 -13.70479 -2.0628288 0.16665852 -11.056831 0.018814428 -0.0040228665 -2.6781247
-1.1345986 -1.7056646 -1.9255193 -0.20284976 -10.657524 -0.28967583 -0.20932308 0.16437787
-1.7832605 -2.6715882 -0.8658176 -4.94744 -11.116986 0.14688653 0.3260313 1.1768668
-4.2948074 -0.47334215 -0.13710918 -8.670401 -7.770044 -0.4248052 -0.14751734 0.74684846
-1.574134 0.10674508 -0.95814115 -10.1873865 -13.291278 -0.20476419 -0.2839588 0.4292713
-2.106367 -0.40877926 -2.3796158 -4.698703 -1.6242794 -0.35458156 -0.20707299 1.0749182
00000000: 05b8 69bf ad99 94bf 8dc3 10c0 b2d6 8f3e
00000010: 239b e6c0 e971 e5bc 85d3 3cbe 98e6 95be
00000020: 9bb2 a5bf 4f96 21be dcfc 4fbf 6458 49c0
00000030: aa57 38c1 8bf4 8b3e 80e7 67bb 27a4 aabe
00000040: e13c 7bbf d4c6 883f 465a 2dc0 a4f3 f9bf
00000050: 3507 4dc0 cb1b 713e 4b36 b03e 1e23 ddc0
00000060: 4e52 64bf 7f2d 23c1 117a e2bf ca59 3dbe
00000070: 2499 9bbf b5e8 c9be 7098 82bc 76a2 2abf
00000080: afa7 1e3e 018a 0dc1 f995 fbc0 ab00 a0bf
00000090: 2d3c a8bf 8a61 c73d 608d ce3c 87f5 f0be
000000a0: 976d 27c0 83b7 2bc0 5457 2ac0 b38c 553f
000000b0: 3523 4fbd 2c99 52be 782b 013e 7baf 95bf
000000c0: 6286 98c0 8562 7e3e 6461 cdbe de0f 40c1
000000d0: c016 8dc0 ae3c c0be 7c7b c13d 927e 723e
000000e0: cbfb 08c0 583c 8f3f 0632 48bf 8712 e3c0
000000f0: 62d4 47c1 d7a5 643d 2984 843e 46a7 1ac0
00000100: 6004 48be 4825 89c0 745f 00c0 5098 273f
00000110: 2f86 52c0 c01e c6be 7959 af3e 20da 55c1
00000120: 7d24 1abf f235 e5c0 b074 6ac0 7ef0 f93f
00000130: 0d72 10c0 3b9f 84be b183 a1be dbdc 43c1
00000140: e0f6 47bf bbce dcbf c962 35bf f8e8 69c0
00000150: a73a 8ac1 741f 6b3e a8b4 67be b57a 4d3e
00000160: 04b9 68bf 6847 43be 9794 32bf 92da b6bf
00000170: a232 6cc1 1c61 53bd 2c7a 973d 8de3 64c0
00000180: 5478 0cbf b0f5 64be 5036 8cbf 5c25 3dbf
00000190: c333 6ec1 c73d 6f3e 5149 5dbe 0e70 2dc1
000001a0: b650 02be ee3c b2bf 32aa c4bf 5ec1 e2bf
000001b0: 1693 99c0 bc30 51be fabb 3f3e 1f0d a2bf
000001c0: b648 21be 5e32 f8be 3f94 29c0 12e9 40be
000001d0: 57c5 8fc1 467b e13c 1f87 aebe 67dc fcbf
000001e0: 8c69 32bf a1df 66bf 8659 acbf c785 fabe
000001f0: f0fa 66c0 f21f babe 8b15 5fbe 6dbe d4bf
00000200: 06d8 41bf 8e11 b53f a2b4 36c0 7527 93c0
00000210: 76f7 0bc1 1415 81bd 8ef0 683e 8af3 1ec1
00000220: 05b1 2d3e 4f77 313d e951 2ec1 c475 96bf
00000230: b359 26c1 e9fc 803e 0a00 783e 39f7 08c1
00000240: b503 8fbf d429 c3be f706 5dc0 ce3c 7c3f
00000250: 9504 6bc1 0b36 56bd 7287 5e3e 5bc5 19bf
00000260: a106 12c0 6604 2c3f 4d9f b8bf 2cc0 40c0
00000270: 6b30 5bc1 728c 933d 4e15 6bbe 48b5 f1bc
00000280: 0901 adbe 3660 883f 3aca eec0 b602 13c1
00000290: c6b3 efc0 9f77 bebe f582 9dbe edbe 53c0
000002a0: 75dc f0be edd9 7cc1 de5c f7bf 9c50 6c3f
000002b0: 4f81 f3bf 1a4e 5abc a74f 923e 9b84 9cc0
000002c0: d806 f0be fc6a 43c1 6302 ddc0 a3de a33f
000002d0: 5f35 97bf ff4f ccbe e095 2cbe 8577 e7bf
000002e0: 0a73 8cbf e8e4 43bf 866d 48c0 8933 c03f
000002f0: 04f8 26c0 bde0 7cbe d2c5 3c3e 32b0 50c0
00000300: 379a 9abf 2def a8bf 1eeb a8bf 271c 7b3f
00000310: 9aa1 cec0 0c8c ac3c d860 3ebd beea 17c0
00000320: eca6 c0bf 517b 3c3f 238d 3cbf f5d3 0fc0
00000330: 0e2b 35c1 2be4 c3be ad42 68be e0c9 e8c0
00000340: 8ff9 aebc d246 5bc1 6305 04c0 88a8 2a3e
00000350: c8e8 30c1 b720 9a3c 40d2 83bb 6566 2bc0
00000360: 873a 91bf 3853 dabf 6b77 f6bf d9b7 4fbe
00000370: 3885 2ac1 6450 94be ca58 56be ac52 283e
00000380: e141 e4bf 4dfb 2ac0 39a6 5dbf 6e51 9ec0
00000390: 2ddf 31c1 6c69 163e 93ed a63e 92a3 963f
000003a0: 106f 89c0 e759 f2be 5966 0cbe f6b9 0ac1
000003b0: 33a4 f8c0 1180 d9be c90e 17be 7631 3f3f
000003c0: 397d c9bf 2a9d da3d bd48 75bf 89ff 22c1
000003d0: 13a9 54c1 b4ad 51be 0c63 91be 73c9 db3e
000003e0: b8ce 06c0 844b d1be a04b 18c0 c65b 96c0
000003f0: 63e8 cfbf b78b b5be f10a 54be eb96 893f

l3.bias f4 [580]
-0.27741495 0.4381458 1.3354737 -0.07027689 0.16001433 -2.1474452 -0.93185925 -1.2351385
-1.3156769 -2.403846 -1.0054343 -0.9639343 -0.47633684 -2.4873614 -1.1407685 -1.7732847
1.2912654 1.4189619 0.44640395 2.6994083 0.49261275 -2.3033056 -0.9831646 0.35153353
2.0342793 0.5653069 0.94349706 0.11672039 -0.083722815 -0.15459463 -2.5538213 -0.35205913
-0.83590734 -2.0335019 -0.3071997 -1.8599225 0.6063098 -0.16061096 -1.2569227 0.62275743
2.4360836 1.3621163 0.46473682 0.15878235 -1.2329758 -0.25741336 -1.5872514 -1.3744642
-0.054347042 0.010971609 0.033038117 1.11184 0.0795706 -1.3553789 1.1695639 0.55040705
-0.37447152 -0.3715754 0.5740612 -0.057874423 -0.68258214 -1.8595496 -1.4570559 0.06726775
-1.3284631 -2.4594638 -0.10669412 -0.45388034 0.57377064 0.3862951 0.021016221 0.4652334
0.34580994 -1.3371265 0.400514 -1.3848659 -1.3652096 -1.6688993 3.5756454 -0.6102893
-0.35452926 -0.5365825 1.0581762 -0.6425239 -1.6797308 -1.8827188 -1.9680531 -2.8729901
4.732767 0.35712653 -0.5970959 -2.239951 0.09101068 -0.45739135 1.741973 -1.6453522
1.4349116 -2.5089762 -1.9339491 -2.0812993 0.3255393 0.59555376 0.030151999 1.0555176
0.3347126 -2.6996574 0.3082661 1.6312717 0.19698556 -0.28184402 0.17692748 -2.4433262
-0.9405081 -2.0301888 -0.8958452 -0.12666854 -1.0842077 -1.2335464 0.6337654 -1.4548016
0.1353064 0.18926777 -0.5378478 -2.0019236 -1.1476923 -0.7198216 1.6599386 0.15176608
-0.34404752 -1.9148966 -0.12631474 -0.06133154 -0.44277617 -2.6642632 -3.634046 -2.743643
-5.817106 -1.7053856 -1.489954 -1.0762792 -2.3333192 -0.778409 -2.4768615 0.04502637
1.3389294 -0.100771755 0.46680486 -0.09745008 -2.0868587 0.3820511 -0.943804 3.083855
1.0631564 1.8582994 0.6485158 0.18659058 -2.8022683 -1.3229014 -0.123035416 -1.1250222
-2.3202937 -4.0728307 0.48336458 -2.4958375 0.86773086 -0.75243634 -0.26413006 1.8024335
0.909984 0.58150864 0.76504135 0.5585433 -1.5288492 1.1525074 -1.4035132 0.35733673
-1.4058069 0.66252875 -0.430272 0.64745826 -0.058351886 -0.82080704 -1.5919675 -2.6284235
0.8045514 -1.5216044 -2.4047396 0.94876033 1.1940747 -1.8891757 -3.3580205 -2.4147038
-1.6419783 -0.31804392 1.1511633 -0.37056893 1.5221258 -0.8476943 -1.4343174 -1.9022144
-0.4622358 -0.2529919 -0.91796273 1.7786835 1.5630378 0.37405258 -0.7171724 -0.7419604
-0.62503064 -0.6359549 -1.1555893 -0.5599248 -0.8992219 -0.13678558 -0.41405246 -2.8621168
-1.4567058 -1.7951224 -1.2716632 -4.647888 -2.1023192 -0.13427716 -0.4197089 -1.9855714
0.18778737 -3.7071688 -4.4810266 -0.48173633 -2.283927 -0.78205216 -0.30746984 0.3246086
-2.764127 -2.885556 -1.9341081 -0.765017 -1.8564348 0.0330716 0.058521368 -0.094508514
0.33398604 -1.9693588 -1.8679615 -3.4531646 0.1680274 1.0561471 0.17486276 0.37307003
-0.5665688 -2.235178 0.27721977 -0.8090791 -0.53987885 -1.2095212 -0.8684737 -0.5111962
00000000: 5509 8ebe a554 e03e cdf0 aa3f 55ed 8fbd
00000010: ccda 233e be6f 09c0 548e 6ebf 0519 9ebf
00000020: 1a68 a8bf 9dd8 19c0 12b2 80bf 66c4 76bf
00000030: 6ce2 f3be ee30 1fc0 b404 92bf fefa e2bf
00000040: 2f48 a53f 8ba0 b53f 0f8f e43e 1bc3 2c40
00000050: bd37 fc3e 5c69 13c0 adb0 7bbf 34fc b33e
00000060: a231 0240 f4b7 103f 0689 713f 1a0b ef3d
00000070: de76 abbd 0e4e 1ebe cf71 23c0 1841 b4be
00000080: 06fe 55bf e524 02c0 4749 9dbe f111 eebf
00000090: 1e37 1b3f 3377 24be d8e2 a0bf 086d 1f3f
000000a0: cbe8 1b40 d459 ae3f fcf1 ed3e d797 223e
000000b0: 27d2 9dbf afcb 83be 0e2b cbbf 71ee afbf
000000c0: 019b 5ebd 43c2 333c fa52 073d c650 8e3f
000000d0: e9f5 a23d 0e7d adbf 45b4 953f 7ae7 0c3f
000000e0: bbba bfbe 213f bebe adf5 123f bb0d 6dbd
000000f0: b4bd 2ebf b905 eebf cf80 babf adc3 893d
00000100: 140b aabf db67 1dc0 7282 dabd 0163 e8be
00000110: a2e2 123f 79c8 c53e 362a ac3c 1233 ee3e
00000120: 000e b13e f626 abbf 2c10 cd3e 4943 b1bf
00000130: 30bf aebf 7e9e d5bf 60d7 6440 eb3b 1cbf
00000140: dc84 b5be 795d 09bf 5172 873f 727c 24bf
00000150: 6b01 d7bf eefc f0bf 2ae9 fbbf 12df 37c0
00000160: d472 9740 4ad9 b63e 47db 18bf 5b5b 0fc0
00000170: cf63 ba3d 332f eabe f9f8 de3f e79a d2bf
00000180: 2fab b73f 1193 20c0 a58b f7bf 0234 05c0
00000190: 16ad a63e 3676 183f 5301 f73c 331b 873f
000001a0: 735f ab3e 30c7 2cc0 0ed5 9d3e 83cd d03f
000001b0: 95b6 493e dc4d 90be 7a2c 353e 755f 1cc0
000001c0: 24c5 70bf 9dee 01c0 1c56 65bf 66b5 01be
000001d0: 51c7 8abf d9e4 9dbf 733e 223f f036 babf
000001e0: c38d 0a3e 69cf 413e 65b0 09bf 841f 00c0
000001f0: 95e7 92bf 3a46 38bf de78 d43f 9168 1b3e
00000200: ff26 b0be 551b f5bf a758 01be c836 7bbd
00000210: 8fb3 e2be 4a83 2ac0 3694 68c0 d997 2fc0
00000220: bb25 bac0 134a dabf d0b6 bebf 84c3 89bf
00000230: 1a55 15c0 d045 47bf e684 1ec0 926d 383d
00000240: 0a62 ab3f 6c61 cebd 0c01 ef3e e893 c7bd
00000250: 188f 05c0 349c c33e 249d 71bf e15d 4540
00000260: 8215 883f c1dc ed3f 2205 263f 9a11 3f3e
00000270: 5d58 33c0 d554 a9bf fef9 fbbd ba00 90bf
00000280: b17f 14c0 a154 82c0 907b f73e cdbb 1fc0
00000290: 9c23 5e3f ab9f 40bf 0e3c 87be 24b6 e63f
000002a0: b6f4 683f c0dd 143f c0d9 433f b2fc 0e3f
000002b0: 55b1 c3bf 5d85 933f 52a6 b3bf d7f4 b63e
000002c0: 7bf1 b3bf 7c9b 293f 9d4c dcbe d3bf 253f
000002d0: 6302 6fbd 6920 52bf 97c5 cbbf 1738 28c0
000002e0: 15f7 4d3f efc3 c2bf 41e7 19c0 f5e1 723f
000002f0: 71d7 983f 82d0 f1bf cfe9 56c0 828a 1ac0
00000300: 582c d2bf a7d6 a2be 5259 933f 36bb bdbe
00000310: 05d5 c23f 7e02 59bf b697 b7bf c37b f3bf
00000320: 2caa ecbe 2888 81be 9bff 6abf e7ab e33f
00000330: 9f11 c83f d283 bf3e 9c98 37bf 1ef1 3dbf
00000340: 0202 20bf f1cd 22bf 5aea 93bf 3b57 0fbf
00000350: 6833 66bf 8511 0cbe affe d3be ec2c 37c0
00000360: 5675 babf 92c6 e5bf dcc5 a2bf 80bb 94c0
00000370: 668c 06c0 f47f 09be 16e4 d6be 3427 febf
00000380: 554b 403e 4142 6dc0 9264 8fc0 25a6 f6be
00000390: dc2b 12c0 9234 48bf b06c 9dbe 1933 a63e
000003a0: 75e7 30c0 f3ac 38c0 db90 f7bf 27d8 43bf
000003b0: a89f edbf 1676 073d 1ab4 6f3d ae8d c1bd
000003c0: 3800 ab3e f313 fcbf 5d19 efbf a600 5dc0
000003d0: 600f 2c3e d42f 873f 390f 333e 0903 bf3e
000003e0: a70a 11bf 280d 0fc0 c0ef 8d3e cf1f 4fbf
000003f0: 8035 0abf 97d1 9abf 4b54 5ebf c1dd 02bf
